wake-word/hey_polly.onnx (onnx, 13784 bytes, 7 tensors)

layer1.bias f4 [32]
00000000: c26b d23b 8440 64bb 608d edbb e670 3d3c
00000010: a9e3 ea3c 8637 3abc 1c9c 353c eb4e ffbc
00000020: 369e 16bc 90f2 91bb 04de 05bc 2ae4 d63c
00000030: 21cf 76bc 5aa9 c3bc 69f7 d33c e47d 633c
00000040: b4ef 253c 71ca 1abc 2fe8 f53c 2639 a73a
00000050: b837 a93c 86f5 1bbc 5243 d4bc 8d05 59bc
00000060: 7c37 ba3b 78c8 3a3c 8c71 6c3c 51f9 8b3c
00000070: 9863 9c3c b877 c93b 3480 ccbc d817 4e3b
0.006421537 -0.0034828493 -0.007249519 0.011562562 0.02867301 -0.011365777 0.011084583 -0.03116556
-0.009192994 -0.0044539645 -0.008170608 0.026231844 -0.015064032 -0.023884464 0.02587481 0.013884995
0.01012795 -0.00944768 0.03001794 0.001275812 0.020656452 -0.009518987 -0.025911007 -0.013245952
0.005682884 0.011400335 0.014431369 0.017086657 0.019090459 0.006148305 -0.024963476 0.0031447317

layernorm1.weight f4 [32]
00000000: 783e 7f3f 9cbc 733f 0e9b 7a3f e832 7f3f
00000010: 0c6e 7f3f 1988 7a3f 6b52 7e3f 75f5 853f
00000020: d9df 773f 8490 833f 1a82 833f 17cd 7b3f
00000030: 0432 7f3f 96aa 7d3f 31f6 803f 62ff 7f3f
00000040: c921 7f3f d84b 7e3f a9f0 813f ff5d 7f3f
00000050: 1d4a 7f3f 51fc 833f bc99 773f 2ee3 803f
00000060: e459 7f3f edf0 833f 6c86 753f ee23 833f
00000070: 0d82 7e3f 3b64 7f3f b631 743f 07e5 7f3f
0.99704695 0.9520967 0.97892845 0.9968705 0.99777293 0.9786392 0.9934451 1.0465533
0.9682594 1.0278478 1.0274079 0.9835982 0.9968569 0.9908842 1.0075132 0.9999906
0.9966093 0.9933448 1.0151569 0.997528 0.9972246 1.0311376 0.96718955 1.006933
0.9974654 1.03079 0.95908237 1.024534 0.9941719 0.99762315 0.9538835 0.99958843

layernorm1.bias f4 [32]
00000000: 21f1 26bc e527 6ebb 42df 923c 14a6 10bc
00000010: f329 103c 57cc a63b b5b8 8abc 2c21 4bbb
00000020: 6a4a 263c 6652 673c 657b ed3a bd01 d43b
00000030: fa02 1fbc f697 1bbc 0943 fc3c 5684 1db7
00000040: 9876 47bb 5adb e93b b28b 743c 6e45 55bc
00000050: b6ee 24bc 2beb 203d 1e32 7bbc f4fc 2e3c
00000060: cbbc 8cbb da8f d639 0fc7 583b 55f4 13bc
00000070: e589 57bc 21d2 68bc f33b ac3a 3927 31ba
-0.010189326 -0.0036339697 0.017928723 -0.008828659 0.008799064 0.005090277 -0.016933778 -0.0030995114
0.010149578 0.014118766 0.001811844 0.006469934 -0.0097052995 -0.0094966795 0.030793684 -9.388741e-06
-0.0030435678 0.0071367444 0.014925884 -0.013017042 -0.010066679 0.039286774 -0.015331773 0.010680426
-0.004294967 0.00040924439 0.0033077633 -0.009030421 -0.013155435 -0.014210255 0.0013140425 -0.0006757859

blocks.0.fcn_layer.bias f4 [32]
00000000: 22b8 b93d 6637 ab3d 9e6c 1cbc 4461 923b
00000010: a555 1abe 7be1 1d3e dc59 babd 8070 993c
00000020: b2ff 9b3d cbdb 223e 733e adbd 7600 fb3b
00000030: 287e 633d 7b11 863c 121a ddbd ecca 10be
00000040: 006b a3bd b576 b63c 727a bd3c 86d2 c8bc
00000050: 6ac7 533d 7617 0dbd 7a56 313c 0f67 393e
00000060: 3aac 0e3d 4b25 ed3d 4508 723d 5978 75bd
00000070: d898 903d 26d8 763c a834 163d 96d1 00be
0.09068324 0.08360176 -0.009547381 0.0044671614 -0.15071733 0.15418045 -0.090991706 0.018730402
0.076171294 0.15904157 -0.08459177 0.007659967 0.055540234 0.016365757 -0.10795988 -0.14139909
-0.07979393 0.0222734 0.023129676 -0.024514448 0.051703848 -0.034446202 0.01082384 0.1810572
0.034832217 0.11579379 0.059089918 -0.059929226 0.07060403 0.015066182 0.03667131 -0.1257995

blocks.0.layer_norm.weight f4 [32]
00000000: b077 833f f211 803f c632 823f 14c6 8a3f
00000010: 8280 7f3f ba20 a43f adea 823f 87b9 813f
00000020: 06fe 9f3f 4eb8 aa3f b0f5 803f f78d 6f3f
00000030: 472a 803f 1b70 a13f dc1d 803f bd28 8d3f
00000040: 88de 8a3f 5a8c 7c3f 349f 813f e42e 7f3f
00000050: 139b 883f 5687 923f c9c2 9e3f f00d 853f
00000060: 2743 a13f 6914 803f c55e 6f3f 7353 a03f
00000070: 3208 803f d250 a53f 9ca9 8e3f 428f 803f
1.0270901 1.0005476 1.0171745 1.0841699 0.9980546 1.2822487 1.0227867 1.0134743
1.2499397 1.3337495 1.0074978 0.93575996 1.0012902 1.2612337 1.0009112 1.1028057
1.0849161 0.9865166 1.012671 0.99680924 1.0672325 1.1447551 1.2403194 1.0394878
1.2598618 1.0006229 0.9350398 1.2525467 1.0002501 1.2915289 1.1145511 1.0043719

blocks.0.layer_norm.bias f4 [32]
00000000: da4c 5e3c ab6f aa3a 464e b139 0ee0 fd3c
00000010: eaa8 67bb 5596 8b3e 2820 e53c b43b 223c
00000020: dbbe 813e d648 943e ab93 0e3c c45d a6bd
00000030: e4bf 56bb be50 863e fd15 ffba dcaf c13d
00000040: bdaa 293d 20de bcbb 2d9f 8a3c de29 d3ba
00000050: d1a1 073d db4a ae3d c34b 7e3e 6acf a33c
00000060: d2eb 833e 1c30 9eb8 f535 9ebd 46de 853e
00000070: f3b2 f6ba 71b2 8b3e ed58 2c3d c187 533b
0.0135681275 0.001300325 0.0003381839 0.030990627 -0.0035348483 0.27263132 0.027969435 0.00990193
0.25340924 0.2896182 0.008702199 -0.08123353 -0.0032768184 0.26233476 -0.0019461509 0.09457371
0.041422594 -0.005763784 0.016921604 -0.00161105 0.033113305 0.08510371 0.24833588 0.019996364
0.25765854 -7.542988e-05 -0.07725135 0.26146144 -0.0018821642 0.27284577 0.042076994 0.003227696

last_layer.weight f4 [1, 32]
00000000: 9ac2 b23c fbfb 6bbd ae35 353e f83f 183e
00000010: acc4 c93d 401d a5be 94c2 35be 52fa 083e
00000020: c616 b7be 826a aebe e634 9dbc 57a9 72bd
00000030: b042 c0bd bb7b b3be cd1c 62bd 3774 dd3d
00000040: bf10 493e 22c8 92bc f97a 21bd e4bb cabc
00000050: 5e33 fb3d f7da 1b3e 7faa bebe d70a 243e
00000060: 2ffd b4be dfb0 71bd ad2f 9ebd 7659 a4be
00000070: f1dd abbd 472d afbe c431 743e d749 473d
0.021821309 -0.057613354 0.17696258 0.14868152 0.09851965 -0.32248878 -0.17750007 0.1337674
-0.35759562 -0.34065634 -0.019190263 -0.059243526 -0.0938772 -0.35055336 -0.055203248 0.10813182
0.19635294 -0.017917696 -0.039423916 -0.024747796 0.12265657 0.15220247 -0.37239453 0.1601976
-0.35349414 -0.059006568 -0.07723937 -0.32099503 -0.08391941 -0.3421423 0.23847109 0.048654404
